…
2021-07-05 01:02:33.118123: I tensorflow/core/common_runtime/gpu/gpu_device.cc:1276] 0:   N 
2021-07-05 01:02:33.122381: I tensorflow/core/common_runtime/gpu/gpu_device.cc:1402] Created TensorFlow device (/job:localhost/replica:0/task:0/device:GPU:0 with 11218 MB memory) -> physical GPU (device: 0, name: NVIDIA TITAN Xp, pci bus id: 0000:82:00.0, compute capability: 6.1)
Model loaded: w0s0.pb
Model: "sequential"
_________________________________________________________________
Layer (type)                 Output Shape              Param #   
=================================================================
conv2d (Conv2D)              (None, 32, 32, 96)        2688      
_________________________________________________________________
conv2d_1 (Conv2D)            (None, 32, 32, 96)        83040     
_________________________________________________________________
conv2d_2 (Conv2D)            (None, 16, 16, 96)        83040     
_________________________________________________________________
dropout (Dropout)            (None, 16, 16, 96)        0         
_________________________________________________________________
conv2d_3 (Conv2D)            (None, 16, 16, 192)       166080    
_________________________________________________________________
conv2d_4 (Conv2D)            (None, 16, 16, 192)       331968    
_________________________________________________________________
conv2d_5 (Conv2D)            (None, 8, 8, 192)         331968    
_________________________________________________________________
dropout_1 (Dropout)          (None, 8, 8, 192)         0         
_________________________________________________________________
conv2d_6 (Conv2D)            (None, 6, 6, 192)         331968    
_________________________________________________________________
conv2d_7 (Conv2D)            (None, 6, 6, 192)         37056     
_________________________________________________________________
conv2d_8 (Conv2D)            (None, 6, 6, 10)          1930      
_________________________________________________________________
global_average_pooling2d (Gl (None, 10)                0         
_________________________________________________________________
activation (Activation)      (None, 10)                0         
=================================================================
Total params: 1,369,738
Trainable params: 1,369,738
Non-trainable params: 0
_________________________________________________________________
Performing correspondence analysis.
Working on model: w0s5.pb
2021-07-05 01:02:36.307051: I tensorflow/stream_executor/platform/default/dso_loader.cc:48] Successfully opened dynamic library libcudnn.so.7
…
